autoencoder/hw/pre_trained_weights.pt (torch, 169159 bytes, 56 tensors)

encoder.0.weight f4 [4, 1, 5, 5]
0	0x3b0e0220	0.0021668747
1	0xbc4099b3	-0.011755395
2	0x3dc1b5b1	0.09458483
3	0x3d60c9fa	0.05488012
4	0xbcfebe8f	-0.031096725
5	0xbd266656	-0.04062494
6	0x3e8a42c0	0.2700405
7	0xbe9bcdf2	-0.3043056
8	0x3dce6d71	0.10079468
9	0x3d1746d4	0.03693278
10	0x3e24d6cc	0.16097564
11	0xbe8259d0	-0.25459146
12	0x3ef1d170	0.472301
13	0x3daca12d	0.08429179
14	0x3cb6bb7f	0.022306202
15	0xbd94e140	-0.072695255
16	0x3eaab8c6	0.33344096
17	0x3e3f3671	0.18673111
18	0xbe064ae9	-0.13114513
19	0x3aaf044f	0.0013352724
20	0xbd9a0c60	-0.075218916
21	0x3e00532b	0.12531726
22	0x3d84048a	0.06446178
23	0xbd0feb6a	-0.035136618
24	0x3a0cac9b	0.00053662964
25	0xbb9e9f6e	-0.004840783
26	0xbb988af3	-0.004655236
27	0x3c547a58	0.012968622
28	0xbce2444f	-0.027620463
29	0xbca36d77	-0.019949658
30	0xbc0759ca	-0.0082611535
31	0xbbf789a4	-0.00755425
32	0xbc209020	-0.009799987
33	0xbd842fa1	-0.06454397
34	0xbcd37c02	-0.025815967
35	0xbc16d852	-0.009206848
36	0xbb3c454d	-0.002872783
37	0xbd5bdfa0	-0.053680062
38	0x3eb2781a	0.34857255
39	0xbd3bbe25	-0.045835633
40	0x3c437437	0.011929563
41	0x3b46bd90	0.003032539
42	0xbf6bce3b	-0.9211156
43	0xc011823c	-2.2735739
44	0xbb1bfa21	-0.0023800211
45	0xbb870730	-0.00412073
46	0xbbe35fdf	-0.006938919
47	0xbd5bc8dd	-0.053658355
48	0x3c0fc485	0.008774881
49	0xba517282	-0.000798978
50	0xbaf9d8f2	-0.0019061847
51	0x3c2f4455	0.010697444
52	0x3cad9d73	0.021193242
53	0x3b8659f3	0.0041000783
54	0xbb4aa80e	-0.0030922922
55	0x3c179866	0.009252643
56	0x3d48d9d1	0.04903585
57	0xbdc15e47	-0.0944181
58	0x3cd50f25	0.026008198
59	0x3b62f3c2	0.0034630154
60	0x3d5c2253	0.05374367
61	0xc0b715c3	-5.7214065
62	0xc0e72b96	-7.2240705
63	0x3ce04080	0.027374506
64	0x3b115ad7	0.002217939
65	0x3cc2fb2b	0.023801407
66	0x3d518531	0.05115241
67	0x3d06aa3f	0.032877203
68	0x3c2ed72e	0.01067142
69	0xbbc16a03	-0.00590253
70	0xbad348c1	-0.0016119705
71	0x3c0beb07	0.008539922
72	0x3be8a81d	0.007100119
73	0xbb9ffda7	-0.0048825326
74	0xbc179bd3	-0.00925346
75	0x38ca87a6	9.657377e-05
76	0x39947a00	0.00028319657
77	0xba550013	-0.0008125316
78	0xbb80434b	-0.003914272
79	0xb90e37e4	-0.00013562996
80	0xbaa45754	-0.0012538233
81	0xbd780f99	-0.06056175
82	0x3e8043cc	0.25051725
83	0xbdb485d1	-0.08814586
84	0x3b5d7d32	0.0033796546
85	0x3cac28cd	0.02101555
86	0xbeb464be	-0.3523311
87	0x3f63468d	0.88779527
88	0xbe9903fd	-0.29885855
89	0x3c1f9a7c	0.009741422
90	0x3ad8f2d8	0.0016551865
91	0x3d834df1	0.064113505
92	0xbe4a61bb	-0.19763844
93	0x3d9bfcca	0.07616575
94	0xb9cbb64e	-0.00038855005
95	0xbabe3245	-0.0014510831
96	0x3c6c5200	0.014423847
97	0xbcc4dde8	-0.024031594
98	0x39a1174a	0.00030725665
99	0xb9ebdc93	-0.00044987033

encoder.2.weight f4 [4]
0	0x3f4f2880	0.80921173
1	0x3f5750b0	0.84107494
2	0x3f32297d	0.69594556
3	0x3f90026c	1.1250739

encoder.2.bias f4 [4]
0	0x3ee337ac	0.44378412
1	0x3ebd2397	0.36941215
2	0x3e19bdbe	0.15013787
3	0x3eaa06c7	0.33208296

encoder.2.running_mean f4 [4]
0	0x3e094214	0.13404113
1	0x3be908a7	0.007111627
2	0x3c009949	0.007849046
3	0x3da38882	0.07985021

encoder.2.running_var f4 [4]
0	0x3d672b25	0.05643763
1	0x3aac023f	0.0013123228
2	0x3a28bb78	0.00064366264
3	0x3d23f116	0.04002484

encoder.3.weight f4 [8, 4, 4, 4]
0	0xbd3c9f6f	-0.046050485
1	0xbdb17a86	-0.086659476
2	0xbdabecd6	-0.08394782
3	0xbcebc2ce	-0.028779414
4	0xbd97e4a6	-0.07416658
5	0xbe860e3b	-0.26182732
6	0xbe046a96	-0.12931284
7	0xbd3b15f7	-0.045675244
8	0xbdbd1a6e	-0.09233557
9	0xbf394d04	-0.7238314
10	0xbe7b3bb8	-0.245345
11	0xbcf22729	-0.029559689
12	0xbca4e0d9	-0.020126747
13	0xbdcc8428	-0.09986144
14	0xbd56045c	-0.05225025
15	0xbbff639a	-0.007793856
16	0xbe1389ad	-0.14407988
17	0xbe975b80	-0.29561996
18	0xbe107bf9	-0.14109792
19	0xb9374269	-0.0001747698
20	0xbe2371f3	-0.15961437
21	0xbe59a6f9	-0.21255101
22	0xbd0eac1b	-0.0348321
23	0xbb5faf79	-0.003413169
24	0xbdc967b1	-0.09834231
25	0x3c3e5ed2	0.011619287
26	0xba140af6	-0.0005647385
27	0xbbca8829	-0.0061807823
28	0xbdc6af29	-0.09701378
29	0xbd8e1021	-0.0693667
30	0xbb95d2fa	-0.0045722695
31	0xba5c7f75	-0.00084113266
32	0x3afb4ab6	0.0019172046
33	0x3cb97d47	0.022642745
34	0x3d04102b	0.03224198
35	0x3be8fe12	0.0071103657
36	0x3c412802	0.011789324
37	0xbd331cbc	-0.043728575
38	0xbeaa5093	-0.33264598
39	0x3cc4983d	0.023998374
40	0x3c1b0e0d	0.009463799
41	0xbed58153	-0.4170023
42	0x3d0b7637	0.034048285
43	0x3cc772f2	0.024346802
44	0x3a09fc96	0.00052637735
45	0x3d409b78	0.047023267
46	0x3cb40d0d	0.02197888
47	0x3b954dad	0.004556379
48	0xbcea905e	-0.028633293
49	0xbe7954de	-0.2434878
50	0xbe967010	-0.29382372
51	0xbd038110	-0.032105505
52	0xbe89df58	-0.2692821
53	0xbec77e69	-0.3896363
54	0xbe987f30	-0.29784536
55	0xbd1636c0	-0.036673307
56	0xbe936af0	-0.28792524
57	0xbe9409dc	-0.28913772
58	0xbe6ec899	-0.2331871
59	0xbc57e8d5	-0.01317807
60	0xbdc727a2	-0.09724356
61	0xbe15b377	-0.14619242
62	0xbd755496	-0.05989512
63	0x3c1161a3	0.008873376
64	0x3e0eecf0	0.13957572
65	0x3e36d78d	0.17855664
66	0x3d8c14ea	0.068399265
67	0x3dfac738	0.12245029
68	0x3e14c683	0.14528851
69	0x3ebbea86	0.36702365
70	0x3e475ace	0.19468233
71	0x3e4bce34	0.19902879
72	0x3d269da5	0.040677685
73	0x3e907add	0.28218737
74	0x3e65453c	0.22389692
75	0x3e215151	0.15753676
76	0xbd93d5d3	-0.07218518
77	0x3d8568d6	0.065141365
78	0x3de835d7	0.11338394
79	0x3dc70d88	0.09719378
80	0x3db6998d	0.08916006
81	0x3e1dc26f	0.15406202
82	0x3b92e9fd	0.00448346
83	0xbd19d61d	-0.03755771
84	0x3e0255b3	0.12728004
85	0x3db24646	0.0870481
86	0xbd72ba79	-0.059259865
87	0xbd20c2b5	-0.039248187
88	0x3da10a4a	0.078632906
89	0x3d4bc0b2	0.049744315
90	0xbc45ee48	-0.012080736
91	0x3d01d5ac	0.031697914
92	0x3da36f48	0.079802096
93	0x3e107e4d	0.1411068
94	0x3dd508e7	0.104020886
95	0x3d8062c1	0.06268836
96	0x3d2adc75	0.04171415
97	0x3e1c6e47	0.15276442
98	0x3d2fa80b	0.042884868
99	0xbd62b149	-0.055344854
100	0x3e3f3fa9	0.18676628
101	0x3ed2c7cd	0.4116806
102	0x3e410443	0.18849282
103	0xbdcf23d9	-0.10114259
104	0x3dcad851	0.0990454
105	0x3e7273b8	0.23676956
106	0x3da714b5	0.081582464
107	0xbdf4b4b9	-0.119485326
108	0x3c87bfd6	0.016570967
109	0xbccccc31	-0.02499971
110	0xbd237b2b	-0.039912384
111	0xbdbbb853	-0.091660164
112	0x3d39ba7c	0.04534386
113	0x3ce75fe5	0.028243968
114	0xbd805f1c	-0.06268141
115	0xbd81daf8	-0.06340593
116	0x3e225314	0.15852004
117	0x3e375cf3	0.17906551
118	0x3b27dc26	0.0025613396
119	0xbd768248	-0.06018284
120	0x3e048672	0.12941912
121	0x3e31eeb0	0.17376208
122	0xbc854d2a	-0.016272146
123	0xbd9b7983	-0.07591536
124	0x3d76339f	0.060107823
125	0x3d0e952b	0.034810226
126	0xbdb2abc5	-0.08724169
127	0xbde43cc2	-0.11144401
128	0xbde12ee1	-0.109952696
129	0xbde9abda	-0.11409731
130	0xbdffc956	-0.12489574
131	0xbe0613b7	-0.13093458
132	0xbe00fc09	-0.12596144
133	0xbdeb2019	-0.114807315
134	0xbe8d8e50	-0.27647638
135	0xbe751a6a	-0.23935857
136	0xbe2972e3	-0.16547732
137	0xbe83e03f	-0.25757024
138	0xbec5dc18	-0.3864448
139	0xbe44093b	-0.19144146
140	0xbdd91d6f	-0.10601317
141	0xbe3bdefc	-0.1834678
142	0xbe124f76	-0.14288124
143	0xbde7540b	-0.11295327
144	0x3d4976f5	0.049185712
145	0x3da6e39d	0.081488825
146	0x3d9fd2e5	0.07803897
147	0x3cf94caa	0.030432064
148	0xbc73f9bc	-0.014891084
149	0x3d187e9b	0.037230115
150	0x3d9470c7	0.07248073
151	0x3d1175d6	0.035512768
152	0xbda64a9b	-0.081196986
153	0xbd9a0b3f	-0.07521676
154	0x3b89005c	0.004180951
155	0x3ba95177	0.005167182
156	0xbd5b2e05	-0.053510685
157	0xbd3b571b	-0.045737367
158	0xbcaa6299	-0.020798968
159	0xbc82fbe5	-0.015989253
160	0xbd1f9cb9	-0.03896782
161	0x3c7bb437	0.015362791
162	0x3dd5ed66	0.10445671
163	0x3dd7b7cc	0.10533103
164	0xbc8a2487	-0.01686312
165	0x3e280193	0.1640685
166	0x3eb65f48	0.3561957
167	0x3e80dd0d	0.25168648
168	0x3cdfac5e	0.02730387
169	0x3e712506	0.2354928
170	0x3efbc455	0.49173227
171	0x3e96bd94	0.29441512
172	0x3cc40670	0.02392885
173	0x3e174d27	0.14775525
174	0x3e652ef9	0.223812
175	0x3e1b461d	0.15163465
176	0xbcf003a1	-0.029298605
177	0xbc7d117c	-0.015446063
178	0xbb6addfa	-0.0035837875
179	0xbcb97991	-0.022640975
180	0x3d1167ef	0.03549951
181	0x3d8e9418	0.069618404
182	0xbd6633d9	-0.05620179
183	0x3cb03a93	0.021512305
184	0x3c98658c	0.018603109
185	0x3df7a502	0.120920196
186	0x3e733390	0.23750138
187	0x3dbe973a	0.09306188
188	0x3caeb9c0	0.021328807
189	0x3e062014	0.13098174
190	0x3e207e8f	0.15673278
191	0x3d512a49	0.051065717
192	0x3d49dec0	0.049284697
193	0x3dd0b664	0.10191038
194	0x3dd6c981	0.104876526
195	0x3d4229f4	0.04740329
196	0x3dacb93c	0.08433768
197	0x3e860d5e	0.26182073
198	0x3e2e4874	0.17019826
199	0x3d464e19	0.048414323
200	0x3d557475	0.052113015
201	0x3e3050c1	0.17218305
202	0x3db10257	0.086430244
203	0x3d30162f	0.042989906
204	0xbc0f6a50	-0.008753374
205	0x3cd59411	0.02607158
206	0xbda95d4a	-0.082697466
207	0x3d07c3dc	0.03314577
208	0x3d85ee03	0.06539538
209	0x3dca545e	0.09879373
210	0x3b89cb61	0.004205153
211	0xbb3a24bc	-0.0028403243
212	0x3df72ffc	0.12069699
213	0x3e1b3a3c	0.15158933
214	0x3d5ea0e8	0.05435267
215	0x3b908407	0.00441027
216	0x3e2fdd06	0.17174158
217	0x3d5274d7	0.05138096
218	0x3d95e0ac	0.073182434
219	0x3c9b08ae	0.018925037
220	0xbc93f705	-0.018062124
221	0xbdc10d06	-0.09426312
222	0xbbd478d1	-0.006484129
223	0x3c534462	0.012894722
224	0x3d18ae7c	0.037275776
225	0xbc51b79e	-0.012800125
226	0x3c64e692	0.013970988
227	0x3d1cf942	0.03832365
228	0x3cc6370c	0.02419617
229	0x3c0abaf8	0.008467428
230	0x3d322e50	0.0435012
231	0xbd102151	-0.035188023
232	0x3d55bd78	0.052182645
233	0x3da91c46	0.08257346
234	0x3d2f4751	0.042792622
235	0x3cd6e17e	0.02623057
236	0x3d1620a9	0.03665224
237	0xbb0d81b4	-0.0021592202
238	0x3d0fbaa2	0.035090096
239	0x3d8f12aa	0.06985982
240	0x3cc4c710	0.024020702
241	0x3e2e2a16	0.17008242
242	0x3e38589d	0.18002553
243	0x3d9ee22b	0.07757982
244	0x3e55383f	0.20822237
245	0x3eff858c	0.49906576
246	0x3e95635c	0.29177368
247	0x3d2f5160	0.042802215
248	0x3e601770	0.2188394
249	0x3ecfdb6d	0.40597096
250	0x3e2487e0	0.16067457
251	0x3cf589a3	0.029972857
252	0x3d6e79bb	0.05822156
253	0xbbf52b6f	-0.0074819843
254	0xbcc79956	-0.024365108
255	0x3c7f95c5	0.015599673

encoder.5.weight f4 [8]
0	0x3fad0307	1.3516549
1	0x3f25ad82	0.64717877
2	0x3ecf3e4f	0.40477225
3	0x3f18a660	0.5962887
4	0x3f132c72	0.57489693
5	0x3f529b10	0.82267857
6	0x3f05d8ca	0.5228392
7	0x3f453827	0.77038807

encoder.5.bias f4 [8]
0	0xbf9de888	-1.2336588
1	0x3edcb131	0.43103936
2	0x3e9ce685	0.30644622
3	0x3fa475ad	1.2848412
4	0x3fab42f7	1.3379811
5	0xbbdbdb56	-0.0067094965
6	0xbfaff1f9	-1.3745719
7	0x3f0b60da	0.5444466

encoder.5.running_mean f4 [8]
0	0x3d30c4c7	0.04315641
1	0x3fcc98c7	1.5984124
2	0x3d379f3e	0.0448296
3	0x3fd8c63d	1.6935498
4	0x3f4d4e4a	0.80197585
5	0x3f1d3299	0.6140533
6	0x3df1d070	0.118073344
7	0x3fbbf8e6	1.4685333

encoder.5.running_var f4 [8]
0	0x3b65cc41	0.0035064372
1	0x405eefd4	3.483388
2	0x3cf7a39e	0.030229386
3	0x40a3c1d3	5.11741
4	0x3f9d76cc	1.2301879
5	0x3f466d4f	0.7751054
6	0x3cdee65e	0.027209457
7	0x407b939d	3.9308846

encoder.6.weight f4 [8, 8, 7, 7]
0	0x3d0a375d	0.033744205
1	0xbcccf241	-0.02501786
2	0xbe0c03a6	-0.13673267
3	0x3d0e1e2c	0.034696743
4	0x3e258536	0.16164097
5	0x3dadbc49	0.08483178
6	0x3cb7f039	0.022453414
7	0x3d204b45	0.039134283
8	0xbd15c162	-0.036561377
9	0xbe1c182f	-0.152436
10	0xbd5b10a4	-0.053482667
11	0x3d508ad8	0.05091366
12	0x3d9389b4	0.07203999
13	0x3d5b5cd4	0.053555325
14	0x3d04f9d7	0.03246483
15	0xbe243cc7	-0.1603881
16	0xbe4d5920	-0.2005353
17	0xbc9e1af7	-0.019299967
18	0xbdfa4a8e	-0.122212514
19	0xbbbcc67f	-0.0057609673
20	0x3d43f7d1	0.047843758
21	0xbd7f5ac6	-0.062342428
22	0xbda621da	-0.081119254
23	0x3d8dc0e2	0.06921555
24	0x3dba6792	0.09101786
25	0xbb5cf135	-0.0033713107
26	0xbd3b2362	-0.04568804
27	0xbc5f9770	-0.013646945
28	0xbd31586a	-0.04329721
29	0x3c6f1114	0.014591474
30	0x3e151c83	0.14561658
31	0x3d680277	0.056642976
32	0xbdbe5052	-0.09292664
33	0xbd9040b3	-0.070435904
34	0xbe017756	-0.1264318
35	0xbd1fbc39	-0.038997862
36	0xbc196dc9	-0.009364554
37	0x3d21166e	0.03932803
38	0xbd563800	-0.0522995
39	0xbe6e1686	-0.2325078
40	0xbe8e144c	-0.2774986
41	0xbe8e44b9	-0.27786806
42	0xbe0d520c	-0.1380083
43	0xbc1da98f	-0.009622945
44	0xbb489b0d	-0.0030609996
45	0xbd90ca47	-0.07069831
46	0xbe76bb0b	-0.24094789
47	0xbe813e9d	-0.25243083
48	0xbdd1b2d4	-0.10239187
49	0xbbfc5f30	-0.007701777
50	0x3ce4dbee	0.027936902
51	0x3daaf814	0.083480984
52	0xbb4a37c3	-0.003085599
53	0xbdf79e7c	-0.12090775
54	0xbdee5d82	-0.11638929
55	0xbd62f468	-0.055408865
56	0xbd6272ea	-0.05528537
57	0x3d868d63	0.06569936
58	0x3dff70be	0.12472676
59	0x3d458501	0.048222546
60	0xbbe6a811	-0.007039078
61	0xbb24e06c	-0.002515818
62	0xbd21cbcf	-0.039501008
63	0xbd09a734	-0.033606723
64	0x3dab716d	0.083712436
65	0x3d9306f7	0.07179063
66	0x3d3aa075	0.04556318
67	0x3de2df2b	0.11077722
68	0x3d0be25b	0.034151416
69	0xbc07ca6f	-0.00828801
70	0xbd3d84ad	-0.046269108
71	0x3bf7d401	0.0075631146
72	0xbd8fd19c	-0.07022402
73	0x3c3ed55f	0.011647551
74	0x3d69aecb	0.05705146
75	0x3c769c17	0.015051863
76	0x3d34906a	0.044083036
77	0xbb849a04	-0.0040466804
78	0x3d2e66da	0.042578556
79	0xbd3ede21	-0.046598557
80	0x3b5a10d7	0.0033274197
81	0x3dec7b7c	0.1154699
82	0x3d1ab8b8	0.037773818
83	0x3e16579a	0.14681855
84	0x3d5ce628	0.05393043
85	0x3d8af97f	0.06785869
86	0x3d74f55c	0.059804305
87	0x3e4bc621	0.19899799
88	0x3ea27ac0	0.31734276
89	0x3e744b44	0.23856837
90	0x3e74f4e8	0.2392155
91	0x3db3364a	0.08750589
92	0x3e16a176	0.1471003
93	0x3d33f3e4	0.043933764
94	0x3e2caf6f	0.16863798
95	0x3eae571a	0.34050828
96	0x3e7b870c	0.24563235
97	0x3e7aa5cd	0.2447731
98	0xbc6ddcea	-0.014518002
99	0x3d9ed8c7	0.07756191
100	0x3d81d1cf	0.06338846
101	0xbd8f476d	-0.06996045
102	0xbdd2e7f0	-0.10298145
103	0xbd8deaac	-0.06929526
104	0xbd859a21	-0.065235384
105	0xbbd3222b	-0.006443282
106	0x3dbb887b	0.09156891
107	0x3dccadfe	0.09994124
108	0xbcd6ef03	-0.026237017
109	0xbc5e9d36	-0.013587287
110	0xbd510472	-0.05102963
111	0xbd827172	-0.06369294
112	0x3c91acd8	0.017782614
113	0x3dd5e2b8	0.10443634
114	0x3d8b9864	0.068161756
115	0x3d991317	0.07474344
116	0x3da070b7	0.07833999
117	0xbbc32f63	-0.0059565767
118	0x3abfc624	0.0014631194
119	0x3cdf0588	0.027224317
120	0x3bd30de0	0.006440863
121	0xbd30badd	-0.043146957
122	0xbca877f0	-0.020565003
123	0xbc6846ec	-0.014177065
124	0xbcf8d676	-0.0303757
125	0x3db9ef81	0.09078885
126	0x3cfcc058	0.030853435
127	0xbd3ac964	-0.045602217
128	0xbdbbed00	-0.091760635
129	0xba80f755	-0.0009839336
130	0x3d1ecd80	0.0387702
131	0x3daeb7fa	0.085311845
132	0x3e0c5d53	0.13707475
133	0x3d9eec33	0.07759895
134	0x3becd850	0.007227935
135	0x3d6aa3d0	0.05728513
136	0x3e65608b	0.2240011
137	0x3e89ec84	0.2693826
138	0x3e8bab28	0.2727902
139	0x3e289216	0.16461977
140	0x3df63f43	0.12023785
141	0x3d6d62ed	0.05795567
142	0x3dd06db1	0.10177172
143	0x3e8286be	0.25493425
144	0x3e8e9164	0.278453
145	0x3e8aef6d	0.27135792
146	0x3db50daa	0.08840497
147	0x3ba9f040	0.0051861107
148	0x3d7ac538	0.06122324
149	0x3de3358c	0.11094198
150	0xbc40a914	-0.011759061
151	0xbe10ee0c	-0.14153308
152	0xbd8d95fc	-0.06913373
153	0xbdc5b4e6	-0.09653644
154	0xbd2c0882	-0.0420003
155	0x3df826e4	0.12116793
156	0x3e0ccd75	0.1375025
157	0x3c0e1618	0.00867226
158	0xbcbb0824	-0.02283103
159	0x3cb7664e	0.02238765
160	0xbdae4aeb	-0.08510383
161	0x3bedf9a3	0.007262425
162	0x3dad3149	0.08456666
163	0x3d87b066	0.06625442
164	0x3d571dc5	0.052518625
165	0x3d6adfb6	0.057342254
166	0x3cea076a	0.028567988
167	0xbb426c86	-0.0029666736
168	0x3bc2eb60	0.005948469
169	0x3cc03630	0.023463339
170	0x3b328f17	0.0027245933
171	0x3b6bdd2b	0.003598998
172	0xbbd2f9ef	-0.006438486
173	0xbb549f7d	-0.0032443695
174	0x3dbce2ec	0.092229694
175	0x3d91d6b7	0.07121032
176	0x3cb56f16	0.022147696
177	0xbcde3638	-0.027125463
178	0x3ceddab1	0.029034944
179	0x3d83b1b4	0.064303786
180	0x3ce3d02f	0.02780923
181	0x3e2a8ed2	0.16656044
182	0x3e035626	0.12825832
183	0xbca400bf	-0.020019887
184	0xbbcf78e0	-0.006331548
185	0x3e2bbc6b	0.16771095
186	0x3e2edfcb	0.17077558
187	0x3e0e2368	0.13880694
188	0x3e473736	0.19454655
189	0x3e1edf53	0.15514879
190	0x3df5e7bb	0.1200709
191	0x3e25d7aa	0.1619555
192	0x3e9d0817	0.30670235
193	0x3e980ac4	0.29695714
194	0x3e654589	0.22389807
195	0x3e420720	0.1894803
196	0x3d58a53b	0.05289195
197	0x3dc5115e	0.09622453
198	0x3dc54c8b	0.0963374
199	0xbca26ac8	-0.019826308
200	0xbdb1b273	-0.086766146
201	0xbd8fafc7	-0.07015949
202	0xbde37dd9	-0.11107988
203	0xbb6398d5	-0.0034728546
204	0x3db493a1	0.088172205
205	0x3e1fcb3b	0.1560487
206	0x3da5fc99	0.0810482
207	0x3d592563	0.05301417
208	0x3d804aeb	0.062642895
209	0xbdcb8754	-0.09937921
210	0x3caec13d	0.021332378
211	0x3d88ff1d	0.06689284
212	0x3e1a97b4	0.15096933
213	0x3ddfdc6e	0.109307155
214	0x3dcb2ff5	0.099212565
215	0x3d8eed68	0.069788754
216	0x3da8e5a1	0.08246923
217	0x3d273bce	0.04082852
218	0x3d0a2b9f	0.033733007
219	0x3cf01744	0.029307969
220	0x3ca7eb9a	0.020498086
221	0xbba02ad3	-0.0048879175
222	0xbcfa3713	-0.03054384
223	0x3de9b20c	0.11410913
224	0x3c92c9a1	0.01791841
225	0xbd1489dc	-0.036264285
226	0xbd67e5be	-0.056615584
227	0x3c236d2e	0.009974761
228	0x3d503128	0.05082813
229	0x3d8d3d8d	0.068965055
230	0x3e45cd05	0.1931649
231	0x3c945e3e	0.018111344
232	0x3b3bd764	0.0028662318
233	0x3d22fb8f	0.039790686
234	0x3e3a3d22	0.18187383
235	0x3e447959	0.19186915
236	0x3e7228fa	0.23648444
237	0x3e5a222f	0.21302103
238	0x3d800aaf	0.06252038
239	0x3cbb9598	0.02289848
240	0x3db26e19	0.08712406
241	0x3e7b0d6a	0.24516836
242	0x3e1987dd	0.14993234
243	0x3e3c26c4	0.18374163
244	0x3d400ff2	0.046890207
245	0xbbc39c5c	-0.005969567
246	0x3d854766	0.06507759
247	0x3d5d7a6e	0.054071836
248	0xbd9c050c	-0.0761815
249	0xbdef9ad5	-0.11699454
250	0xbd62df06	-0.055388473
251	0xbe0192d4	-0.12653667
252	0xbc54e844	-0.01299483
253	0x3df683d3	0.12036862
254	0x3d3c70da	0.04600606
255	0xbd35f9f7	-0.04442784

encoder.8.weight f4 [8]
0	0x3f7e1f33	0.99266356
1	0x3f6b930c	0.9202125
2	0x3f81aeb8	1.0131445
3	0x3f6f7a2c	0.93545794
4	0x3f6d8343	0.92778414
5	0x3e972703	0.2952195
6	0x3f26e92d	0.6519955
7	0x3f8779c0	1.058403

encoder.8.bias f4 [8]
0	0xbf28d853	-0.65955085
1	0x3f391e7c	0.7231214
2	0xbdf94b1e	-0.121725306
3	0x3f56e724	0.8394644
4	0xbf8429a7	-1.0325211
5	0xbf86f82c	-1.0544486
6	0x3eef4664	0.4673339
7	0xbe8ece55	-0.27891794

encoder.8.running_mean f4 [8]
0	0x4199d283	19.227789
1	0x418ff1e2	17.993107
2	0x416b0f45	14.691228
3	0x41709c0b	15.038096
4	0x4174aa6a	15.291605
5	0x3f4d3d10	0.801713
6	0x3f355489	0.70832115
7	0x412a5eed	10.648175

encoder.8.running_var f4 [8]
0	0x4250c847	52.195583
1	0x41ef5151	29.914705
2	0x41deda30	27.856537
3	0x41d4d19c	26.602348
4	0x41f7db48	30.98207
5	0x3fe977cd	1.8239685
6	0x4011ef9d	2.2802498
7	0x4194cbbc	18.59948

encoder.9.weight f4 [16, 8, 4, 4]
0	0x3e28e8c4	0.16495043
1	0x3ddc5cc8	0.10759884
2	0xbd867f1e	-0.065672144
3	0x3d497641	0.04918504
4	0x3e1d18ab	0.15341441
5	0x3e40b55b	0.18819182
6	0xbda18873	-0.07887354
7	0x3cc97c22	0.024595324
8	0x3d78abd3	0.06071074
9	0x3d931a3a	0.07182737
10	0xbe24fcfb	-0.1611213
11	0xbd0b0c38	-0.0339472
12	0xbd65f0c5	-0.05613782
13	0x3da3f600	0.08005905
14	0xbcf48405	-0.029848108
15	0x3db4a747	0.08820968
16	0xbddcfdc6	-0.10790591
17	0xbcfecee2	-0.031104509
18	0xbdc8b3e9	-0.0979994
19	0xbd90a087	-0.07061868
20	0xbd60f7be	-0.054923765
21	0x3eb4badf	0.3529882
22	0x3ddd373a	0.10801549
23	0xbdaf7536	-0.08567278
24	0xbdd0d858	-0.10197514
25	0x3f087514	0.5330365
26	0x3e75b759	0.23995723
27	0x3db7c5ae	0.08973251
28	0x3d3a384f	0.045463856
29	0xbd89eed5	-0.06735007
30	0x3e17c972	0.14822939
31	0xbd58e682	-0.052954204
32	0x3d68b587	0.056813743
33	0xbdbd2e71	-0.092373736
34	0xbd775083	-0.060379516
35	0x3cdf3af3	0.027249789
36	0xbd9b89c3	-0.07594635
37	0xbc26d749	-0.010183164
38	0x3db84b96	0.08998792
39	0x3ce55563	0.027994817
40	0x3c0698ae	0.008215113
41	0xbdd2b3e7	-0.1028822
42	0x3cd550a3	0.026039427
43	0x3cdcb5d1	0.026942166
44	0x3d851478	0.06498045
45	0x3d7f357d	0.06230687
46	0xbd8e8766	-0.06959419
47	0xbdcf69bf	-0.10127591
48	0x3e6b9c46	0.23008832
49	0x3d83721d	0.0641825
50	0x3d8493c5	0.06473497
51	0xbda21276	-0.079136774
52	0xbcbd55bf	-0.023112176
53	0xbdcf5c2f	-0.101250045
54	0xbd2f7d32	-0.042844005
55	0xbdabd6d1	-0.08390582
56	0xbea43b96	-0.3207671
57	0xbd618fac	-0.055068657
58	0xbd82c39e	-0.06384967
59	0xbc662826	-0.014047658
60	0xbb07d804	-0.002072812
61	0xbd4c84bf	-0.049931284
62	0x3d8a697f	0.06758403
63	0x3c94518e	0.018105295
64	0xbd18233b	-0.037142973
65	0xbe52b94e	-0.205785
66	0xbdcfbf9d	-0.10143969
67	0xbdb5ad59	-0.08870954
68	0xbc006934	-0.007837582
69	0x3c7f264c	0.0155730955
70	0xbd01f96c	-0.031732008
71	0xbdd60492	-0.104500905
72	0x3d93e962	0.072222486
73	0xbd24f5ca	-0.040273465
74	0xbd9e1246	-0.07718329
75	0x3dd15722	0.102216974
76	0x3de133d5	0.10996214
77	0x3e7b7102	0.24554828
78	0xbd964121	-0.07336641
79	0x3e074b5a	0.13212338
80	0x3c0d6595	0.008630176
81	0xbd5256dc	-0.051352367
82	0x3d486d42	0.04893232
83	0xbd964fa5	-0.0733941
84	0x3c464585	0.012101536
85	0xbd299ae2	-0.041407473
86	0xbbf7add7	-0.007558565
87	0x3d253dc5	0.04034211
88	0x3d1a617e	0.037690632
89	0xbdfc3fa7	-0.12316828
90	0x3d60964f	0.054830845
91	0xbca64a40	-0.020299077
92	0x3d842ea6	0.0645421
93	0x3d58703e	0.052841417
94	0x3cb45c45	0.022016654
95	0x3d2a60bb	0.041596156
96	0xbd3c751a	-0.046010114
97	0x3c94aa7f	0.018147705
98	0xbd16fdad	-0.036863018
99	0x3c58ef3d	0.013240633
100	0xbbfd966e	-0.00773888
101	0xbc0d2ba5	-0.008616363
102	0xbcf0aec3	-0.029380208
103	0x3d03f499	0.03221569
104	0x3da6af2c	0.0813888
105	0xbaf4c19a	-0.001867342
106	0xbd189598	-0.03725204
107	0x3cbc7980	0.023007154
108	0x3e3584a6	0.17726383
109	0xbcb7bd45	-0.022429118
110	0xbca68668	-0.020327762
111	0x3d5dca38	0.05414793
112	0xbd0545b5	-0.03253718
113	0xbda0eab5	-0.07857267
114	0x3e0595e6	0.13045463
115	0xbcefae5c	-0.029257946
116	0xbe2710af	-0.16314958
117	0x3e88a9a8	0.26691937
118	0xbe125a7b	-0.14292328
119	0xbc760c7e	-0.015017627
120	0xbddded22	-0.10836245
121	0x3efd4f09	0.49474362
122	0x3d6b83e4	0.057498828
123	0x3dc157b6	0.09440558
124	0x3ce950ca	0.028480906
125	0xbe867d14	-0.26267302
126	0x3de19ab2	0.11015834
127	0x3e009f1a	0.12560692
128	0x3d832370	0.064032435
129	0xbba1ce82	-0.0049379477
130	0xbdfb2cb3	-0.12264385
131	0x3dab8ac6	0.08376078
132	0xbe08b54f	-0.13350414
133	0xbe1def17	-0.15423237
134	0xbe2f0783	-0.17092709
135	0x3d8351d9	0.064120956
136	0x3e113b85	0.14182861
137	0xbda95784	-0.082686454
138	0xbb6c0f53	-0.0036019876
139	0xbd4cc117	-0.049988832
140	0xbdac19cc	-0.08403358
141	0xbd96907b	-0.07351776
142	0x3dae9a93	0.085255764
143	0x3c8a0df0	0.016852349
144	0x3a52cf97	0.00080417976
145	0x3e87c9be	0.26521105
146	0xbcec28fb	-0.028828135
147	0x3d30a7b3	0.04312868
148	0x3d097d04	0.03356649
149	0x3edc6046	0.430422
150	0x3dc37efe	0.09545706
151	0xbd0b592b	-0.034020584
152	0xbb378405	-0.0028002274
153	0x3ce93bf8	0.028470978
154	0xbdafb04e	-0.08578549
155	0x3d39cd3c	0.045361742
156	0xbd951398	-0.07279128
157	0xbe3a9d80	-0.18224144
158	0x3dbd0024	0.092285424
159	0x3e588f7e	0.21148488
160	0xbd829e89	-0.063778944
161	0xbc4bff88	-0.01245106
162	0xbd3deb53	-0.046367
163	0xbe02428a	-0.12720695
164	0x3c7f22fb	0.015572305
165	0xbd817374	-0.06320849
166	0xbd753298	-0.059862703
167	0xbdf89414	-0.12137619
168	0x3e03c181	0.12866785
169	0xbda47e75	-0.08031932
170	0xbe31d96e	-0.17368099
171	0xbcc99950	-0.024609238
172	0xbd115438	-0.035480708
173	0xbdccd3de	-0.10001348
174	0xbc35c25f	-0.011093705
175	0x3d772674	0.060339406
176	0xbcaa18a6	-0.020763706
177	0xbd113b36	-0.03545686
178	0x3e86df9a	0.2634247
179	0x3b2c24b0	0.0026266985
180	0x3bd69f5d	0.0065497593
181	0x3e813463	0.2523528
182	0x3ecbcc95	0.3980452
183	0x3e299e83	0.16564374
184	0x3de18634	0.11011925
185	0x3e91815e	0.28419012
186	0x3e360750	0.17776227
187	0x3db24685	0.08704857
188	0xbc9ff503	-0.01952601
189	0xbe255177	-0.16144358
190	0x3d1487d9	0.036262367
191	0xbd87ed92	-0.0663711
192	0xbdb37b2d	-0.08763728
193	0xbdef8586	-0.116953894
194	0xbe0a5fe5	-0.13513143
195	0xbdff4501	-0.12464333
196	0xbe16e5d0	-0.14736104
197	0xbd9dd647	-0.07706886
198	0xbe46dc39	-0.19419946
199	0x3d7c1617	0.061544504
200	0xbcd13e5f	-0.025542436
201	0xbc8dd610	-0.017313987
202	0xbe03d293	-0.12873296
203	0xbd08aabc	-0.03336595
204	0xbdc2b34c	-0.095068544
205	0x3bc05470	0.0058694407
206	0x3e6a641f	0.22889756
207	0x3d973ada	0.07384272
208	0x3d3fc60a	0.046819724
209	0x3e13c05a	0.14428845
210	0x3da6e561	0.08149219
211	0xbd3e293f	-0.046426054
212	0x3e14284f	0.14468502
213	0x3e39f720	0.18160677
214	0x3d9682fd	0.07349203
215	0x3cef79d0	0.02923289
216	0xbd623384	-0.05522491
217	0x3a55cd9f	0.0008155945
218	0xbd621257	-0.05519327
219	0xbd18280b	-0.037147563
220	0xbd87dd7c	-0.06634042
221	0x3dbd0360	0.09229159
222	0x3dace325	0.08441762
223	0x3c8bbd9d	0.017058188
224	0x3dae2d22	0.08504702
225	0x3ddc9d23	0.10772159
226	0xbc181c36	-0.00928407
227	0x3cda9bb2	0.02668557
228	0x3d6afcff	0.057370182
229	0xbd1486d7	-0.036261406
230	0xbc6f26a4	-0.014596615
231	0x3c380858	0.011232458
232	0xbd1e0d4b	-0.038586896
233	0xbd7a8f9b	-0.06117211
234	0xbd9eddd1	-0.07757152
235	0x3dabf6f6	0.083967134
236	0x3c0a3524	0.008435521
237	0x3d99d2a5	0.075108804
238	0xbd870dcb	-0.06594428
239	0x3dc31904	0.09526256
240	0x3e3d977b	0.18514816
241	0x3d69b439	0.05705664
242	0xbe86d37c	-0.26333225
243	0xbdc967d0	-0.09834254
244	0xbda3a8d8	-0.07991189
245	0x3ddabc90	0.10680497
246	0xbdae6449	-0.085152216
247	0xbd660dd7	-0.056165542
248	0x3d7c6463	0.061619174
249	0xbdb404cb	-0.08789977
250	0xbe79f63c	-0.24410337
251	0xbd9a569e	-0.07536052
252	0x3c41e01d	0.011833218
253	0x3d058145	0.032593984
254	0x3da92164	0.08258322
255	0x3cdbdf93	0.026840007

encoder.11.weight f4 [16]
0	0x3f44ab82	0.768242
1	0x3fa11687	1.2585
2	0x3f4d19ab	0.8011729
3	0x3f925d68	1.1434755
4	0x3f28ea8f	0.6598291
5	0x3f91422e	1.1348321
6	0x3f198d7e	0.59981525
7	0x3f068348	0.5254407
8	0x3f9626e0	1.1730614
9	0x3f49a238	0.7876315
10	0x3f183253	0.5945179
11	0x3f965512	1.1744711
12	0x3f65dfad	0.8979443
13	0x3f99251f	1.1964453
14	0x3f8eb42d	1.1148735
15	0x3f41c0b9	0.75684696

encoder.11.bias f4 [16]
0	0xbe36e101	-0.1785927
1	0x3ebe030f	0.3711171
2	0xbf3bb22c	-0.73318744
3	0xbeed5eff	-0.4636154
4	0xbec29731	-0.38005975
5	0xbfb44b9a	-1.4085572
6	0xbefde572	-0.49589115
7	0xbf0bd1e0	-0.5461712
8	0xbf067359	-0.52519757
9	0xbeda41ee	-0.42628425
10	0xbee59e9e	-0.44847578
11	0xbe705fb3	-0.23474006
12	0x3d90a07b	0.07061859
13	0xbebf99d7	-0.37422058
14	0x3f16cc87	0.58905834
15	0x3e351c0f	0.17686485

encoder.11.running_mean f4 [16]
0	0x3f32cba3	0.69841975
1	0x40071c77	2.1111124
2	0x3f60286e	0.8756169
3	0x4019fc76	2.406034
4	0x3e8d1dda	0.27561837
5	0x3fc6c14a	1.5527737
6	0x3f024b9b	0.50896615
7	0x3ec20343	0.37893113
8	0x401053f5	2.2551243
9	0x3e11f83a	0.14254847
10	0x3e569952	0.20956925
11	0x4022266b	2.5335948
12	0x3f1c3d6c	0.6103122
13	0x40430873	3.0473907
14	0x3fe6a73b	1.8019785
15	0x3df76e4d	0.12081585

encoder.11.running_var f4 [16]
0	0x3f331bbf	0.6996421
1	0x402677c8	2.6010609
2	0x3f09c138	0.53810453
3	0x3fccdd16	1.600497
4	0x3e5b7f26	0.21435222
5	0x3fb09398	1.3795042
6	0x3f06d37c	0.5266645
7	0x3e98286d	0.29718342
8	0x402be767	2.6859987
9	0x3e0066f5	0.12539275
10	0x3e24bff0	0.16088843
11	0x3f9a4578	1.205245
12	0x3f7f6a7e	0.9977187
13	0x3fc3547c	1.5260158
14	0x3fea44fa	1.83023
15	0x3df3c8f8	0.11903566

encoder.12.weight f4 [16, 16, 4, 4]
0	0xbbba5d72	-0.005687409
1	0xbdd5f702	-0.104475036
2	0x3d3fc50e	0.046818785
3	0xbdcfdd62	-0.10149647
4	0x3ddf27fd	0.10896299
5	0x3d89661f	0.06708931
6	0x3e00f18d	0.12592144
7	0xbddaadbe	-0.1067767
8	0x3e6732b5	0.22577937
9	0xbce219c6	-0.02760018
10	0x3dd5c010	0.10437024
11	0xbd4e4d16	-0.050366484
12	0xbe993068	-0.29919744
13	0x3d4486dc	0.047980174
14	0x3caf311a	0.021385718
15	0x3d94b9a6	0.07261972
16	0x3e8479b7	0.2587411
17	0x3e728196	0.23682246
18	0xbe75d321	-0.2400632
19	0xbedac7e3	-0.42730626
20	0xbc313b31	-0.010817335
21	0xbc120c8e	-0.008914126
22	0x3d469d72	0.048489995
23	0x3e3daccb	0.18522947
24	0x3e2454b8	0.16047943
25	0xbd417e42	-0.04723955
26	0xbd193107	-0.03740027
27	0xbd5557ee	-0.05208581
28	0xbd7663f2	-0.06015391
29	0x3dfae9b3	0.12251606
30	0x3d97f030	0.07418859
31	0xbcfd4537	-0.030916793
32	0x3d26fa25	0.0407659
33	0xbe1b88a6	-0.15188846
34	0xbdc1142c	-0.094276756
35	0x3d9c1124	0.07620457
36	0xbe07c070	-0.13257003
37	0x3c7ef2cb	0.015560816
38	0x3c318ae7	0.01083634
39	0xbe0dc77d	-0.1384563
40	0xbdd52014	-0.10406509
41	0xbd4c9564	-0.049947158
42	0x3d71d16d	0.059037615
43	0x3c5b272b	0.013376038
44	0xbc6ad18b	-0.0143321855
45	0x3dd30d2a	0.10305245
46	0x3e387904	0.18014914
47	0xbd741366	-0.059588812
48	0x3e893efd	0.2680587
49	0xbd17eb7b	-0.037089806
50	0x3ce53dc5	0.027983556
51	0xbdecae89	-0.115567274
52	0xbd424181	-0.04742575
53	0xbb600c36	-0.0034186966
54	0x3d85c635	0.065319456
55	0xbe8e4732	-0.27788693
56	0x3e063b7f	0.13108633
57	0xbdd64fa9	-0.10464413
58	0xbbdb94b1	-0.006701075
59	0xbdb5cced	-0.08876977
60	0xbe82077b	-0.25396332
61	0xbd09e509	-0.03366569
62	0xbe6f7897	-0.23385845
63	0x3dffabe1	0.12483955
64	0x3d691e36	0.056913577
65	0xbd908965	-0.07057456
66	0xbcf732aa	-0.030175526
67	0xbdc1bfd3	-0.09460416
68	0xbd0f7d62	-0.035031684
69	0x3c16180d	0.009161008
70	0x3c118c03	0.008883479
71	0x3ce1b11e	0.027550276
72	0xbcf087eb	-0.029361686
73	0xbd1b3038	-0.03788778
74	0xbcda46b6	-0.026645046
75	0x3dc3f2d9	0.09567804
76	0x3d869b5b	0.065726005
77	0x3c22a074	0.00992595
78	0xbe7ebce2	-0.2487674
79	0xbe3b865f	-0.18312977
80	0xbe084a32	-0.13309553
81	0xbe72fca4	-0.23729187
82	0xbe4cc7d5	-0.19998105
83	0xbdd22bc2	-0.102622524
84	0xbe3f61bd	-0.18689628
85	0xbdbc7fbd	-0.09204052
86	0xbe6b68da	-0.22989216
87	0xbc346a48	-0.011011668
88	0xbe095c65	-0.13414152
89	0xbdbf8ed8	-0.09353417
90	0xbd3234cd	-0.043507386
91	0x3cac61a8	0.02104266
92	0xbe381664	-0.17977291
93	0x39a4f0ed	0.0003146002
94	0xbec02497	-0.37527916
95	0x3eb75db5	0.3581368
96	0xbda87177	-0.08224767
97	0xbe79fb66	-0.24412307
98	0xbdf9425a	-0.12170859
99	0xbea512a0	-0.32240772
100	0xbe1bca8e	-0.15213987
101	0xbdb87e8d	-0.09008513
102	0xbd5fa91f	-0.054604646
103	0xbd3ec08c	-0.046570346
104	0x3da2a59f	0.07941746
105	0x3b53cfd0	0.003231991
106	0xbcde030c	-0.027101062
107	0x3cfaae51	0.030600699
108	0xbe7e09b8	-0.24808395
109	0xbc1fc221	-0.009750874
110	0x3c08ca94	0.00834908
111	0xbd41e524	-0.047337666
112	0x3d092ca5	0.033489842
113	0xbe3390a1	-0.1753564
114	0xbe53d835	-0.20687945
115	0xbe29d33d	-0.16584487
116	0x3d4f2650	0.050573647
117	0xbd92cdf2	-0.07168187
118	0xbe29018d	-0.16504498
119	0xbe5a03e1	-0.21290542
120	0x3df19790	0.117964864
121	0xbc319aa1	-0.010840089
122	0xbe3e8efd	-0.18609233
123	0xbd1a4174	-0.037660077
124	0xbc7d399d	-0.015455631
125	0xbd82b7ba	-0.06382699
126	0xbd951a19	-0.07280368
127	0xbe52964a	-0.20565143
128	0x3d7327c6	0.059364103
129	0xbe77c8f2	-0.24197748
130	0xbdca3d95	-0.09875027
131	0xbf0d5036	-0.5520052
132	0xbdcb55d8	-0.09928483
133	0xbe3d497c	-0.18485063
134	0xbd104646	-0.035223268
135	0xbdef265d	-0.11677239
136	0x3d8744c2	0.066049114
137	0xbcb2d98d	-0.021832252
138	0x3e615b0f	0.22007392
139	0xbe04a90d	-0.12955113
140	0xbcbcd692	-0.023051534
141	0x3dfbb46b	0.12290271
142	0x3d1153d1	0.035480324
143	0x3e01a851	0.12661864
144	0x3c0cb90f	0.008589043
145	0xbcf65b77	-0.03007291
146	0xbe180216	-0.14844546
147	0x3d3097ac	0.043113396
148	0x3cbd958d	0.0231426
149	0x3d4d3633	0.050100517
150	0x3cf8f82c	0.030391775
151	0xbadb85b5	-0.0016748222
152	0xbe4105c5	-0.18849857
153	0xbddb878d	-0.10719214
154	0xbe1ceb1d	-0.15324064
155	0xbc858db4	-0.01630292
156	0x3d1030e8	0.03520289
157	0xbd92450c	-0.07142076
158	0x3c5e64d6	0.013573846
159	0x3c6a779d	0.014310745
160	0xbd3b5f7a	-0.04574535
161	0xbe254416	-0.16139254
162	0x3df59fa3	0.11993339
163	0x3dd59236	0.10428278
164	0xbcc93b87	-0.024564518
165	0x3dfc6852	0.12324585
166	0x3bb426a0	0.0054977685
167	0xbd9c8e0c	-0.07644281
168	0x3d6264e2	0.05527199
169	0x3c0d450f	0.008622422
170	0x3c9a9077	0.018867714
171	0xbd7a13f7	-0.061054196
172	0xbccc0e03	-0.024909025
173	0xbd719fef	-0.058990415
174	0xbd7957f4	-0.060874894
175	0x3dde6a25	0.10860089
176	0x3e4a840e	0.19776937
177	0xbd18883e	-0.037239306
178	0xbea4ae9d	-0.3216447
179	0xbe9937c1	-0.2992535
180	0xbd0acb17	-0.033885088
181	0xbdba58de	-0.09098981
182	0xbe3ac3d4	-0.18238765
183	0x3e6d3d42	0.23167899
184	0xbd25e02f	-0.040497
185	0x3dd383c2	0.10327865
186	0xbdae8a97	-0.08522528
187	0xbd2178ff	-0.03942203
188	0x3e5c7b6e	0.2153146
189	0xbaffa1e8	-0.0019503208
190	0xbc3eeb83	-0.01165283
191	0xbb659f09	-0.003503742
192	0xbd5c64f0	-0.0538072
193	0x3de25ef0	0.11053264
194	0xbbfbf1a6	-0.007688719
195	0x3e1b77b6	0.15182385
196	0xbcfde650	-0.03099361
197	0xbd5266ab	-0.051367443
198	0xbe1aaac3	-0.15104203
199	0x3d965d02	0.073419586
200	0xbe0f3bc8	-0.13987648
201	0x3def0ebf	0.116727345
202	0xbd8714f1	-0.06595791
203	0x3d927ee9	0.071531124
204	0x3e7b0f50	0.2451756
205	0xbd4af1fa	-0.049547173
206	0xbdad1eaf	-0.08453118
207	0xbd44383e	-0.0479052
208	0xbdcc1868	-0.099655926
209	0x3cb7bc22	0.022428576
210	0xbea3b8ab	-0.31976828
211	0x3bca38bb	0.0061713136
212	0x3c1f0904	0.009706739
213	0x3c8064f2	0.015673134
214	0xbd9547a3	-0.07289054
215	0xbcb2b2a6	-0.021813702
216	0xbd25323a	-0.040331103
217	0xbe655f15	-0.22399552
218	0x3e065144	0.13116938
219	0x3df9d931	0.12199629
220	0x3e226376	0.15858254
221	0xbe34704f	-0.17620967
222	0xbe8fbc9f	-0.28073594
223	0x3e26a7d4	0.16274959
224	0x3de006ea	0.10938819
225	0x3e79befb	0.2438926
226	0x3d75eda3	0.06004108
227	0x3daa9957	0.083300285
228	0x3d41186c	0.04714243
229	0xbcdede28	-0.027205542
230	0x3e1a25fe	0.15053555
231	0x3ddd7455	0.10813204
232	0x3e1620f7	0.14661013
233	0x3e6cfad6	0.23142561
234	0x3ceacede	0.028663095
235	0xbe0b089f	-0.13577507
236	0xbb8a7342	-0.0042251656
237	0x3c8fa333	0.017533874
238	0x3e0abf10	0.13549447
239	0x3d9abe05	0.075557746
240	0xbe538681	-0.20656778
241	0x3e438bf3	0.19096355
242	0x3e2337e6	0.15939292
243	0xbd9ce261	-0.07660366
244	0xbd420196	-0.047364794
245	0xbd14479a	-0.036201097
246	0x3defa61c	0.11701605
247	0xbd17528d	-0.03694396
248	0x3dc7ec8b	0.09761914
249	0x3d81cdd0	0.06338084
250	0x3da75ece	0.081723794
251	0xbde11e95	-0.10992161
252	0xbdbef6cb	-0.09324416
253	0xbcb36567	-0.021898938
254	0x3decedef	0.1156882
255	0xbd9af21e	-0.075657114

encoder.14.weight f4 [16]
0	0x3f900b0e	1.1253374
1	0x3f99089e	1.1955755
2	0x3f3b1107	0.73072857
3	0x3f6a8ac5	0.91617996
4	0x3f941564	1.1569028
5	0x3f83554a	1.0260403
6	0x3f88d110	1.0688801
7	0x3f85c0cb	1.0449461
8	0x3f5ba787	0.858025
9	0x3f8043f4	1.0020738
10	0x3e7e6fa7	0.2484728
11	0x3f81fee9	1.0155917
12	0x3f81bae1	1.0135156
13	0x3f906a91	1.1282521
14	0x3f91eab7	1.1399754
15	0x3f5dbe84	0.8661883

encoder.14.bias f4 [16]
0	0xbee42a9e	-0.44563764
1	0xbfa5b382	-1.2945406
2	0xbd13891e	-0.036019437
3	0xbe018026	-0.12646541
4	0xbf69c5a3	-0.91317195
5	0xbe93ae94	-0.2884413
6	0xbe021e23	-0.12706809
7	0xbf469a8f	-0.7757959
8	0xbe6becf9	-0.23039617
9	0xbeca8dae	-0.39561218
10	0xbe659f85	-0.22424133
11	0xbf0188c5	-0.5059932
12	0xbeb801cb	-0.35938868
13	0x3dee5039	0.11636395
14	0xbe863021	-0.26208594
15	0x3e846fb0	0.2586646

encoder.14.running_mean f4 [16]
0	0x40a0a83b	5.020536
1	0x4059bf13	3.4022872
2	0x405cbd6d	3.4490616
3	0x40384d9a	2.8797364
4	0x4011310c	2.2686186
5	0x4094f44f	4.654823
6	0x40072c04	2.1120615
7	0x4093f6aa	4.6238604
8	0x4088ed06	4.2789335
9	0x40a26cd5	5.075785
10	0x3da69ef5	0.081357874
11	0x40acba4f	5.3977427
12	0x00000004	6e-45
13	0x40a004aa	5.0005693
14	0x40a76835	5.2314706
15	0x409864a4	4.762285

encoder.14.running_var f4 [16]
0	0x407183bc	3.7736654
1	0x40aa6b59	5.325604
2	0x40444d83	3.067231
3	0x404cffd6	3.203115
4	0x40b7b91f	5.741348
5	0x406129f3	3.5181854
6	0x408a3187	4.318546
7	0x40d3b5fc	6.615965
8	0x40380aac	2.8756514
9	0x405a2e39	3.4090712
10	0x3d73de2a	0.059538044
11	0x40953b64	4.6635
12	0x00000004	6e-45
13	0x40af1535	5.4713387
14	0x40c40263	6.1252913
15	0x4031fa37	2.780897

encoder.15.weight f4 [32, 16, 4, 4]
0	0x3c169968	0.009191848
1	0x3d1ab492	0.03776986
2	0x3d794f86	0.060866855
3	0x3c548dc0	0.012973249
4	0xbd0aaaa8	-0.033854157
5	0x3e086cad	0.13322707
6	0x3d5b0dcd	0.05347996
7	0x3c6a63b0	0.014305994
8	0xbd2d521e	-0.04231464
9	0x3c152485	0.009102945
10	0x3d1932f0	0.037402093
11	0x3d653910	0.055962622
12	0x3d3e80b6	0.046509467
13	0x3d2bbe3a	0.04192946
14	0x3d4f0336	0.05054017
15	0x3d436000	0.047698975
16	0x3b3f4220	0.00291837
17	0x3d03bd22	0.032162793
18	0x3d4986c6	0.049200796
19	0x3d0931aa	0.03349463
20	0xbd7edea2	-0.062224038
21	0xbca1e238	-0.01976119
22	0x3d44c8aa	0.04804293
23	0x3d1b19c4	0.03786637
24	0xbcc177c8	-0.023616686
25	0x3d3ed60d	0.046590853
26	0x3e04ad7d	0.12956806
27	0xbb9a0540	-0.004700333
28	0x3d315eb4	0.043303207
29	0x3d718c4e	0.058971696
30	0x3cd9e7d4	0.026599802
31	0xbb5a3dc0	-0.0033300966
32	0xbd31652c	-0.043309376
33	0x3cd1e198	0.025620267
34	0xbcfe770c	-0.031062625
35	0x3d6644e0	0.056218028
36	0x3d0f27f8	0.034950227
37	0xbd18c381	-0.037295822
38	0xbd95bb8d	-0.07311163
39	0x3b160820	0.0022893026
40	0xbc1f1378	-0.009709232
41	0x3c9024a0	0.01759559
42	0x3d878659	0.06617422
43	0x3bf38500	0.0074316263
44	0x3c28bba0	0.01029864
45	0xbd742df4	-0.059614137
46	0xbd3016ce	-0.0429905
47	0x3d21ecdc	0.039532527
48	0xbd73f532	-0.05956001
49	0x3b48e2e0	0.0030652806
50	0x3d6064d8	0.054783672
51	0x3d7e3bda	0.062068798
52	0x3c3caff0	0.011516556
53	0x3c158949	0.00912697
54	0xbc826ba4	-0.015920468
55	0xbcab49a8	-0.020909145
56	0x3d54418c	0.051820323
57	0xbd5f65d2	-0.054540463
58	0x3d42c69c	0.04755269
59	0x3c8d4778	0.017245993
60	0xbc0d83b8	-0.008637361
61	0xbca91fc8	-0.020645037
62	0xbd2ba92c	-0.04190938
63	0x3b1dc3a0	0.00240729
64	0x3d1f9416	0.038959585
65	0xbc12ec60	-0.008967489
66	0x3d67f1f6	0.056627236
67	0x3d794f2c	0.06086652
68	0x3d0bf9fc	0.03417395
69	0x3d0fcc41	0.0351069
70	0xbc5968de	-0.013269631
71	0x3d1d86c6	0.038458608
72	0xbd6c51be	-0.057695143
73	0x3e1f0896	0.15530619
74	0x3e181bca	0.1485435
75	0xbcd74bc4	-0.026281245
76	0x3ce5e7d4	0.028064646
77	0xbd2093e6	-0.039203547
78	0x3d148d2a	0.036267437
79	0xbd62412c	-0.055237934
80	0x3b2de5a0	0.0026534572
81	0xbd7d6ba0	-0.061870217
82	0x3d4c228a	0.049837627
83	0xbd546cd6	-0.051861607
84	0x3b0e0860	0.0021672472
85	0xbd52e7fc	-0.05149077
86	0x3e147e83	0.14501385
87	0x3c40c708	0.011766203
88	0xbd08552c	-0.03328435
89	0x3d25ad07	0.040448215
90	0x3d4e6bfd	0.050395954
91	0xbc4b80e8	-0.01242087
92	0xbd470d2a	-0.04859654
93	0xbd39bbbe	-0.04534506
94	0x3c93823c	0.018006437
95	0xbd4f4d56	-0.050610863
96	0xbd412a26	-0.047159337
97	0xbd7bf9a2	-0.061517365
98	0xbd46a40a	-0.048496284
99	0xbd45083a	-0.04810355
100	0xbd1497c4	-0.036277547
101	0xbda9ecfc	-0.08297154
102	0x3d6bc5f2	0.057561822
103	0x3b9a03a0	0.004700139
104	0x3d32da00	0.043664932
105	0xbd86bca0	-0.06578946
106	0x3d147d4f	0.036252316
107	0x3c19ac40	0.0093794465
108	0x3d34af18	0.044112295
109	0x3ce9ce04	0.028540619
110	0x3d39769c	0.04527913
111	0x3d505600	0.050863266
112	0xbd30cb2a	-0.043162502
113	0xbc89ebf4	-0.016836144
114	0x3d67a1f2	0.056550927
115	0x3cc9fa74	0.024655558
116	0xbd0db8ca	-0.034600057
117	0x3df4b4c2	0.11948539
118	0x3cff8170	0.03118965
119	0xbd61c3b6	-0.055118285
120	0x3c76d5c8	0.015065618
121	0xbd01e872	-0.031715818
122	0xbd261714	-0.040549353
123	0x3d47a00a	0.04873661
124	0xbd34dee0	-0.044157863
125	0xbd3ecf64	-0.0465845
126	0x3d496392	0.049167223
127	0x3d747aa4	0.05968727
128	0xb9c16900	-0.0003689006
129	0xbd2988f0	-0.04139036
130	0xbc95a430	-0.018266767
131	0xbd5e8298	-0.054323763
132	0xbc8311b8	-0.01599966
133	0xbc350393	-0.011048215
134	0xbc94b0b6	-0.018150669
135	0x3c968540	0.018374085
136	0x3b3a89e0	0.0028463528
137	0x3d909523	0.070596956
138	0x3dd7e233	0.10541191
139	0xbc69c418	-0.014267944
140	0xbd33e6e6	-0.043921374
141	0xbb8dcde0	-0.0043275207
142	0x3d24652c	0.040135548
143	0x3bd10e20	0.0063798577
144	0x3d2812c6	0.04103353
145	0xbd5075fe	-0.050893776
146	0x3c8da3ec	0.017290078
147	0xbcb68e6c	-0.022284709
148	0xbc1fcc48	-0.009753294
149	0x3d78c088	0.060730487
150	0x3cb5c783	0.022189861
151	0xbd2fe484	-0.04294254
152	0xbc947640	-0.018122792
153	0xbd453e42	-0.048155077
154	0x3d248715	0.040167887
155	0x3cfe5710	0.031047374
156	0x3ca2ae80	0.019858599
157	0x3d2544ba	0.040348746
158	0x3cbcd264	0.02304954
159	0x3cd52a84	0.02602125
160	0x3d6aac36	0.05729314
161	0xbc649368	-0.01395116
162	0x3c9a6f50	0.018851906
163	0xbc1b7f08	-0.009490736
164	0xbbf3e220	-0.0074427277
165	0xbd3a4d03	-0.0454836
166	0xba19c314	-0.0005865556
167	0x3cdab450	0.026697308
168	0xbd382354	-0.044955567
169	0x3d2c3389	0.042041335
170	0xbd27cd15	-0.040967066
171	0xbd1cf0a2	-0.038315423
172	0xbc1cb690	-0.009565011
173	0x3c81dc9c	0.015852265
174	0x3c9a4c98	0.01883535
175	0xbc433708	-0.011914976
176	0x3ce91d00	0.028456211
177	0x3c81c0d0	0.01583901
178	0xbd72bcd0	-0.059262097
179	0xbd3c7f76	-0.046019994
180	0x3c8eb0c0	0.017418265
181	0x3d94d883	0.07267859
182	0x3d39da69	0.045374308
183	0x3cfe9f90	0.031081945
184	0x3c6d29c8	0.014475293
185	0x3d411479	0.047138665
186	0xbd18fd78	-0.0373511
187	0xbd5d350a	-0.05400566
188	0xbd234ada	-0.039866306
189	0xbc2f90f8	-0.010715716
190	0xbd5f0710	-0.054450095
191	0x3d39b19a	0.04533539
192	0xbc5bccc8	-0.013415523
193	0x3d468d44	0.048474565
194	0xbc022ac0	-0.007944763
195	0xbd3935e4	-0.04521741
196	0xbc6e05c8	-0.014527746
197	0x3be2f0ee	0.0069256937
198	0x3d397c01	0.045284275
199	0xbd31ff90	-0.043456614
200	0xbcc67354	-0.024224915
201	0xbca2043e	-0.019777413
202	0x3ba30990	0.004975505
203	0x3d0c70f6	0.034287415
204	0x3d21d446	0.03950908
205	0xbb54bb60	-0.0032460317
206	0x3d4c6c7c	0.049908146
207	0xbd0730dc	-0.03300558
208	0xbd4bc67e	-0.049749844
209	0xbc602048	-0.013679571
210	0x3cdfb2b4	0.027306892
211	0x3d1df34c	0.038562104
212	0xbcfa50b0	-0.030556053
213	0x3d4bc102	0.049744613
214	0x3cf40ce0	0.029791296
215	0x3d2de006	0.042449974
216	0x3d35bcd4	0.044369534
217	0xbd190c22	-0.037365086
218	0xbda940cf	-0.082643144
219	0xbd34a062	-0.044098265
220	0xbd32ed9e	-0.04368364
221	0xbd136fea	-0.0359954
222	0x3b816a40	0.0039494336
223	0x3d398f52	0.045302697
224	0xbd4b15ba	-0.049581267
225	0x3bf17f60	0.0073699206
226	0x3d1b2076	0.037872754
227	0xbd260f5e	-0.040542
228	0x3d7dd7b0	0.061973274
229	0x3d254426	0.040348195
230	0x3d2bbca1	0.041927937
231	0x3ca9afe8	0.020713761
232	0xbcd46ef4	-0.025931813
233	0xbc995875	-0.018718937
234	0xbd47530c	-0.048663184
235	0x3d7ac68a	0.061224498
236	0x3d0e36ce	0.034720235
237	0xbc25c570	-0.010117874
238	0xbd71d9de	-0.059045665
239	0x3d118a2c	0.03553216
240	0x3a6c1580	0.00090058893
241	0x3cf95008	0.03043367
242	0xbd492c0a	-0.049114265
243	0xbc6bbd18	-0.014388345
244	0xbd1fd404	-0.039020553
245	0x3db825df	0.08991598
246	0x3da9207d	0.0825815
247	0xbce54230	-0.027985662
248	0xbd2b6014	-0.041839674
249	0x3a1b81f1	0.00059321435
250	0x3bd982e5	0.0066379183
251	0x3c9ab0ac	0.018883072
252	0xbd57fc94	-0.05273111
253	0xbd5e522a	-0.054277577
254	0xbd124b92	-0.0357166
255	0xbbfe4970	-0.0077602193

encoder.17.weight f4 [32]
0	0x3f82e407	1.0225838
1	0x3f7c9942	0.9867135
2	0x3f5d6357	0.86479706
3	0x3f83f622	1.0309489
4	0x3f5d265c	0.86386657
5	0x3f4d0af8	0.8009486
6	0x3f5f64b1	0.8726302
7	0x3f85e4eb	1.0460485
8	0x3f779230	0.9670744
9	0x3f4cb26b	0.79959744
10	0x3f3f95ab	0.7483775
11	0x3f46c19d	0.7763918
12	0x3f49cd1e	0.7882861
13	0x3f5d1a62	0.8636838
14	0x3f809857	1.004649
15	0x3f5ec9f3	0.870269
16	0x3f7cd4df	0.98762316
17	0x3f7bfca3	0.9843237
18	0x3f4e6877	0.8062815
19	0x3f73dea8	0.9526162
20	0x3f637403	0.88848895
21	0x3f5e483d	0.86828977
22	0x3f4729b5	0.77798015
23	0x3f4e6e1f	0.8063678
24	0x3f4f1371	0.8088904
25	0x3f7e31be	0.9929465
26	0x3f3ba16e	0.732932
27	0x3f8873de	1.066036
28	0x3f62370c	0.88365245
29	0x3f6b60f0	0.9194479
30	0x3f628240	0.88479996
31	0x3f802a5e	1.001293

encoder.17.bias f4 [32]
0	0xbf3d793c	-0.74013114
1	0x3b319c8f	0.0027101373
2	0x3d8292ff	0.063756935
3	0xbf13e4f7	-0.5777125
4	0x3ddb8674	0.10719004
5	0x3ea10a85	0.31453338
6	0x3e47877b	0.19485275
7	0xbf319854	-0.6937306
8	0xbd915c9d	-0.07097743
9	0x3cf2528e	0.02958038
10	0xbd75d022	-0.060012944
11	0xbe2d9208	-0.16950238
12	0x3eae91c6	0.3409559
13	0xbe8d92b1	-0.2765098
14	0xbf103e32	-0.563449
15	0xbe64accb	-0.2233154
16	0x3b89b974	0.004203016
17	0xbf1bda41	-0.60879904
18	0xbe427326	-0.18989238
19	0xbf6c1039	-0.92212254
20	0xbe261470	-0.16218734
21	0xbe00938e	-0.12556288
22	0xbc340fa1	-0.010990054
23	0xbe832de7	-0.25620958
24	0x3e823044	0.2542745
25	0xbe4d70b3	-0.20062523
26	0xbe980eae	-0.296987
27	0xbf17f511	-0.59358317
28	0xbe9a2fbd	-0.30114546
29	0xbe9d75be	-0.30753893
30	0xbeca3214	-0.39491332
31	0xbea63c47	-0.32467863

encoder.17.running_mean f4 [32]
0	0x00000004	6e-45
1	0x00000004	6e-45
2	0x40645634	3.5677614
3	0x00000004	6e-45
4	0x4044bc10	3.0739784
5	0x4019ee1b	2.4051578
6	0x404907f4	3.1411104
7	0x00000004	6e-45
8	0x406fcda0	3.7469254
9	0x403638cf	2.8472173
10	0x402d282f	2.7055776
11	0x4059ce4c	3.4032164
12	0x4052bc5c	3.2927465
13	0x404eba21	3.2301104
14	0x00000004	6e-45
15	0x406c49b3	3.6919982
16	0x00000004	6e-45
17	0x00000004	6e-45
18	0x401415ec	2.313838
19	0x00000004	6e-45
20	0x40554cd2	3.3328137
21	0x40556d15	3.3347828
22	0x405bbdec	3.433467
23	0x404c32ff	3.1906126
24	0x40255fa3	2.5839622
25	0x408027b3	4.004846
26	0x402ef0da	2.7334504
27	0x00000004	6e-45
28	0x4055177d	3.3295586
29	0x403abf04	2.9179087
30	0x404966b2	3.146893
31	0x00000004	6e-45

encoder.17.running_var f4 [32]
0	0x00000004	6e-45
1	0x00000004	6e-45
2	0x3f326f1b	0.69700783
3	0x00000004	6e-45
4	0x3f226ef7	0.6345057
5	0x3ef38763	0.4756423
6	0x3f1ded8b	0.61690587
7	0x00000004	6e-45
8	0x3f7d364b	0.9891097
9	0x3f1616e6	0.5862869
10	0x3ef4cc4d	0.4781212
11	0x3f2e8288	0.68167925
12	0x3f04579b	0.51696175
13	0x3f01eb92	0.50750077
14	0x00000004	6e-45
15	0x3f358020	0.7089863
16	0x00000004	6e-45
17	0x00000004	6e-45
18	0x3edd2eab	0.43199667
19	0x00000004	6e-45
20	0x3f195b7a	0.5990521
21	0x3f3893ad	0.72100335
22	0x3f12789b	0.5721528
23	0x3f0ded73	0.55440444
24	0x3f0c0156	0.5468954
25	0x3f5f8934	0.8731873
26	0x3edcc3fd	0.43118277
27	0x00000004	6e-45
28	0x3f2c4aa0	0.6730137
29	0x3f573da6	0.84078443
30	0x3f44eec7	0.76926845
31	0x00000004	6e-45
